model/model.pth (torch, 2048 bytes, 4 tensors)

linear1.weight f4 [8, 2]
0	0x3fd23f7f	1.6425627
1	0x3ebaafe3	0.36462316
2	0xbe1235b4	-0.14278299
3	0x3ed1d2a2	0.40981013
4	0xc00bd184	-2.1846628
5	0xbeee3f97	-0.4653289
6	0x3f136d8b	0.57589024
7	0xbebe6eec	-0.37194002
8	0xbcaed160	-0.021340072
9	0x3e970d86	0.29502505
10	0xbed89905	-0.42304245
11	0xbd9dcb8f	-0.07704841
12	0x3e4327ed	0.19058199
13	0xbf00f72f	-0.5037717
14	0xbce83de9	-0.028349834
15	0x3e49eaf9	0.19718541

linear1.bias f4 [8]
0	0xbf374998	-0.7159667
1	0xbeb4295c	-0.35187805
2	0x3f85e037	1.045905
3	0xbf2c610c	-0.6733558
4	0xbea097a1	-0.31365684
5	0x3f4592d8	0.7717719
6	0xbf02c719	-0.5108505
7	0x3f6ea2fa	0.9321743

linear2.weight f4 [2, 8]
0	0xbfc384aa	-1.5274861
1	0xbe7df240	-0.24799442
2	0xbfd77bef	-1.6834697
3	0xbe59d1ab	-0.21271388
4	0xbea7a329	-0.3274167
5	0x3de07d9a	0.109614566
6	0xbe7a7b51	-0.24461104
7	0x3f0c933f	0.5491218
8	0xc00db1fa	-2.2139878
9	0x3ea3520f	0.31898543
10	0xbf70c84c	-0.9405563
11	0xbe862574	-0.2620045
12	0xbe8a1d65	-0.2697555
13	0x3f0f7c9b	0.5604951
14	0x3e986e75	0.29771772
15	0x3e9c74d7	0.30557892

linear2.bias f4 [2]
0	0x3f015fdc	0.50536895
1	0x3ee89b41	0.4543095
